CS540/hw7/outputs/model_best.pth.tar (torch, 608923 bytes, 10 tensors)

conv1.0.weight f4 [6, 3, 5, 5]
00000000: 8e15 b5bd 622a bdbd 4d58 aebe 34c1 a6be
00000010: 51b7 3abe 464d c2bc 6745 08be 480f aebd
00000020: a0fe 48be 563a c4bd 3fb6 c7bd 434c 28be
00000030: e689 52be a740 1ebe 6e78 12be 811f b0bd
00000040: 8487 aebd 4623 443d 081e 90bd b902 afbd
00000050: 4508 3ebd 7254 b2ba 03cd 02bd 9eb6 e33d
00000060: 1263 4abd 5a99 883d 53e4 e43d 74b1 2abe
00000070: 9e04 02be 92bd 15bb bf80 1abc 1b40 a63d
00000080: 5b19 e7bd 50ba c6bd dc5d b5bd 9af2 05be
00000090: 38da 1bbe 922a a73d 11dc 5f3d c745 ac3c
000000a0: 088a b2bd 7f20 3bbe db0d 9b3c f9b6 99bd
000000b0: bf43 d6bd 6a32 38be 06f5 5abd e9aa 093d
000000c0: d570 5ebd fa9b 85bd 96fc a83e d5c8 a43e
000000d0: 0e85 4e3e 067f 353e e2e5 9d3e 215e 143e
000000e0: bc11 373e 5962 693d 83b5 6e3d 25d6 d23d
000000f0: 4932 3f3e a0f3 eb3d 8e64 813d a752 373e
00000100: 4558 2b3e 9d14 383d 4854 cc3c c760 203e
00000110: 46df 653e 7c5b 5f3e 4366 f8bc c8b5 22bb
00000120: 6ced 263e f5fc 6e3e ccd3 443e 0d93 863d
00000130: 8828 453e dc9c dcbd 4860 883d a792 fb3d
00000140: 8509 94be f788 853e da26 6d3d 4cfe 08be
00000150: 7b40 083e 944d a1be cd8a 833d c7f5 0dbe
00000160: 3416 51bd 90b8 31bd 4604 77be 8f2b 1c3e
00000170: f790 553d bb12 b4bc 3f9c d8bd 25c4 98be
00000180: 3381 2c3e c54c bd3d 8629 46bd 5244 c43c
00000190: f6ba 1f3e c7e0 8d3e 8db5 16be eea2 01be
000001a0: 8845 85bd 2673 0ebd 9e44 403e 627d fabd
000001b0: 537c b6bd c626 6c3d ed56 debd daa3 d03e
000001c0: 5820 51bb ef81 8a3d 9c60 dd3d d9e2 33be
000001d0: 6ab7 9a3e 5bd6 c43d 174b 8ebd a799 8ebd
000001e0: d4f0 c2bd 4220 4f3e de6b 4abc ea9d 56bd
000001f0: f660 70be 4c7d 84bd 5198 9e3d b179 8cbe
00000200: 0f98 93be 1ee4 50be c66d 0abd 2f76 8a3e
00000210: f637 31be b43e 41be fcfc 353c eb1f cf3c
00000220: 8b8e cb3e 124d 973d ccbe 3cbd 41ed 243d
00000230: ceee 153e e167 f93e 9730 793e 526b e5bd
00000240: afe7 84be 5548 d9bd 52bb aa3e e607 7e3d
00000250: 2693 4ebe 3a7b 90be 8f02 24be 5604 2fbe
00000260: 26a7 cfbd 2aa8 663d 6064 80bd 91b8 2dbe
00000270: c082 a33c a15d 01be 31e0 2ebd 0dab ebbd
00000280: bcbd 61bd 142e 82bd 51cb 2fbe 93fa 0cbe
00000290: 0299 38bc c0d9 07bd 5fe2 bbbd 8090 6b38
000002a0: dacf c3bd 38cf b7bc 7545 473d 0a60 e0bc
000002b0: 3574 2a3e d1c6 943d 9816 0abe 7276 2b3e
000002c0: ae38 7d3d 4c35 113d 3ac8 873e eee8 46bc
000002d0: 1064 943d 1670 2e3d 0deb 203e 53ce 013e
000002e0: ff90 ff3d dd3c 013e 0d2e 453d 996a 833c
000002f0: 4484 f7bc e9b8 483e 296a 213e 7881 093e
00000300: da70 f2bc 3483 d93d d3cd da3c 9044 01bd
00000310: abf0 6b3c 12f6 293e 5b72 123d dd93 913d
00000320: 55f0 72bd 16a1 c5bb 0bc4 07be d823 7bbc
00000330: 8330 bbbd 380e 0dbd 47a2 16be 532d 723c
00000340: 06e1 dbbb 84bb 4abd f70a afbd 5c12 f3bd
00000350: 9702 f2bd 1db0 04be 4638 b2bc cdd5 5fbd
00000360: dfd0 27be 72ac 0cbe 50fc 5c3d aab6 09be
00000370: 6abe a8bd 5e02 db3d 844b b33d 6a50 ff3b
00000380: f920 1bbe e151 e53d 661c 13bd 9d59 dabb
00000390: d6a1 14bd 9bd4 9fbc e748 e73b d3e3 e23d
000003a0: aa1d 0c3d 98ab 073e b1f2 d93d db28 ebbd
000003b0: e2da 333d 089b 9fbd 2ea1 57bc 8ffc b93d
000003c0: 9d3a dabc 30b8 6f3d 7af0 7abd 8b0b c73c
000003d0: f0b9 d83d 1dad 40be ec67 2e3d 45a8 1cbe
000003e0: 0dce 7bbc 66c0 01bd 7db3 cabd 993c 15bd
000003f0: c079 0d3d b698 e3bd b4af 1bbe 3ad8 04be
-0.08842002 -0.092365995 -0.34051743 -0.32569277 -0.18233992 -0.023718487 -0.13307725 -0.084990084
-0.19628382 -0.09581439 -0.097515576 -0.16435342 -0.20560417 -0.1545435 -0.14303753 -0.08599759
-0.08521941 0.047885202 -0.07036978 -0.08545441 -0.046394605 -0.0013605489 -0.031933796 0.11118816
-0.049410887 0.066698745 0.11176362 -0.16669255 -0.12697074 -0.0022848588 -0.0094301095 0.08117696
-0.11284133 -0.09703505 -0.08855793 -0.13080826 -0.15219963 0.081624165 0.05465323 0.021029366
-0.087177336 -0.18274115 0.018927505 -0.075056024 -0.1046214 -0.17987981 -0.05345633 0.03361026
-0.054306824 -0.06523891 0.33005208 0.32184473 0.20167944 0.17724237 0.3083945 0.14489032
0.17877859 0.056978557 0.05827857 0.10294751 0.18671526 0.11521077 0.063180074 0.17902623
0.16732891 0.044941533 0.024942532 0.15661918 0.22448453 0.21812242 -0.0303222 -0.0024827588
0.16301507 0.23338683 0.19221419 0.065710165 0.19253743 -0.10772106 0.06658989 0.12283831
-0.28913513 0.26081058 0.05789838 -0.13378257 0.13305847 -0.315045 0.064229585 -0.13863288
-0.051046565 -0.043388903 -0.24122724 0.15250991 0.052140202 -0.021981588 -0.105766766 -0.29837146
0.1684616 0.09243158 -0.048379444 0.023958359 0.15598664 0.27710554 -0.14717694 -0.12659809
-0.06507403 -0.034777783 0.18776175 -0.12230946 -0.08910432 0.057654165 -0.108564235 0.4075001
-0.0031910148 0.06763064 0.108094424 -0.17567004 0.3021806 0.096111976 -0.06947916 -0.069629006
-0.095185906 0.20227149 -0.012354819 -0.052396692 -0.23474488 -0.06469211 0.07743896 -0.27436593
-0.2882695 -0.2039952 -0.033796094 0.27043292 -0.17306504 -0.18871576 0.011107679 0.025283774
0.3975719 0.07387747 -0.046080396 0.040265325 0.14641878 0.48712066 0.24334942 -0.1120211
-0.2595801 -0.10609499 0.3334604 0.06201925 -0.2017332 -0.28219014 -0.16016601 -0.17091498
-0.10139303 0.056312717 -0.06269145 -0.16964938 0.019959807 -0.12633373 -0.042694274 -0.11507235
-0.055112585 -0.06356445 -0.17167403 -0.13767461 -0.011266949 -0.033166647 -0.09174036 5.6162942e-05
-0.09561129 -0.022437677 0.048650224 -0.027389545 0.16645892 0.07264484 -0.13485181 0.16744402
0.061821632 0.03545122 0.26519948 -0.012140496 0.07245648 0.042587362 0.15714665 0.12676363
0.12478828 0.12620874 0.04813962 0.01604204 -0.030214436 0.19601788 0.15763153 0.13428295
-0.029594827 0.10620728 0.026709473 -0.031559527 0.014400641 0.16597775 0.03575359 0.07108281
-0.05931123 -0.006031166 -0.13258378 -0.01532837 -0.09140112 -0.03443739 -0.14710341 0.014781314
-0.0067101745 -0.049495235 -0.08547013 -0.11868736 -0.118169 -0.12957807 -0.021755349 -0.054647256
-0.16388272 -0.13737658 0.05395156 -0.13448587 -0.082394436 0.10693811 0.08754638 0.0077915685
-0.15149297 0.11197258 -0.035915755 -0.0066635148 -0.03628715 -0.019510558 0.007058251 0.1107861
0.034207977 0.13249052 0.10641993 -0.11482402 0.043909915 -0.07793242 -0.013160987 0.09081375
-0.026639277 0.058525264 -0.061264493 0.024297496 0.1058234 -0.18816037 0.042579576 -0.15298565
-0.015368951 -0.031677626 -0.09897516 -0.036434744 0.034539938 -0.11113112 -0.15203744 -0.12973109

conv1.0.bias f4 [6]
00000000: 90f0 8f3d feb5 44be a805 803f 39e2 59be
00000010: 01b7 a83e 2b30 b63e
0.070283055 -0.1921005 1.0001726 -0.21277703 0.3295212 0.35583624

conv2.0.weight f4 [16, 6, 5, 5]
00000000: c036 41bc 4d6b fa3c d480 a2bd 840b 22bd
00000010: eff6 ebbd 7775 23bd 7d19 cf3c e251 51bd
00000020: b9c1 ac3c 73df b73c 3eb6 48bc f488 44bd
00000030: 01ff 48bd ed3f f6bc 818e 813c 0319 903d
00000040: 886a 493d 504e d5b7 32dd 823c b89c bebd
00000050: dea6 71bd 0aa8 143d 3b56 4bbd 9e6a d53c
00000060: cdb9 66bd d22b 05bc 8a47 74bd 5d7b f33c
00000070: c499 09bc 403e bebb 2492 8b3d e676 453d
00000080: c10c 4a3b 246c 25bd a766 a1bd c32e 9e3c
00000090: edf4 2c3c edf5 75bd 2034 c03c 69ae 4dbd
000000a0: d811 8cbd 32e0 94bd a0a0 103d 1db9 b33b
000000b0: a86a fbbd 040e 153d ffa0 6f3c cc64 abbb
000000c0: 3abc 42bc c328 d6bd 102e 4c3d 5c3a a83d
000000d0: 96c2 d93c 4b11 843d f7aa 323c 5042 b73d
000000e0: 4e4d 1f3d 296f 223d 965b a13d 93f9 a83d
000000f0: 752b 0aba 3cbc 8f3d 2bf3 ec3d 98d2 523d
00000100: b569 8d3d 1dbe 3fba 13d0 9e3d cd80 97bb
00000110: c31a b13b 0bdd 82bc 4d5a 803d 59a6 98bb
00000120: bb72 a43c 378d c3bc 85bb 913d cb99 ad3d
00000130: 5666 e8bc 2f01 14bd 3d34 3bbd fa6b 0cbb
00000140: 8210 56bb 25a9 4abc 25ba bd3b a067 1b3d
00000150: e2dd 41bd 1bf8 c53c 533b 29ba b3ee ecbc
00000160: 4d6e 933b e9cd 113d 85ce 81bd 0006 31bc
00000170: 4d8d 82bd 08a1 ca3c 9028 1dbe 0601 eabd
00000180: 49b2 d53c 1ca6 edbd 7661 8dbd cd1d ddbd
00000190: 2c0e b33c 83ac 003c cbe3 a43d 7a4e 113d
000001a0: 3e3f 2ebc 3538 4cbc 4c52 9bbc 9575 2c3d
000001b0: 5cea 2abd df0f 033e 15fd b43c 0602 d23b
000001c0: be2a 963d 8fa4 883d 445f 0c3e 5fb6 f73d
000001d0: 6419 ad3c 3f36 38bc 20ee 693d 224e 373e
000001e0: a069 dd3d 587f fb3c 6d24 f63d 5606 393e
000001f0: 6cbb 053e a006 17bc 28fe 89bc 110f 643d
00000200: 2853 4e3c 7815 4dbb c098 633d ebba 883d
00000210: 88f6 8c3d 6f6c 7f3d 4ec8 823b 9f79 61bc
00000220: cefe e6bc 5537 b43d 1710 4e3d 292b 713d
00000230: b606 6ebc 055a ae3d 750a 743d 62e7 893d
00000240: dc67 24bd 8930 de3c 13d6 2abd f10b 9f3d
00000250: c810 40bc 01d8 76bb b8c6 fd3d e748 2e3d
00000260: 4d3b 373d 3086 9c3d 697d a83d 97f6 39bd
00000270: 7be2 cd3d 6185 adbb adb7 913d 4407 d73d
00000280: 35fc 823c 2cf4 71bb eb1e 693d 3e29 dfba
00000290: 222d 80bd c13f cb3b cfc0 39bd 340b 10be
000002a0: 9fa5 b8bd 1523 08be 8eaa b1bc 2bed ccbd
000002b0: bf66 21be 11a1 bfbd e10d 53bd 6dc7 013d
000002c0: ec31 843b d9d0 153d 9d0e 583d b2a7 ecbc
000002d0: 6ad1 dcbc 7879 d2bd edd2 f8bc 0c7f 833d
000002e0: d892 62bd bebf 9cbb 8250 e1bc 8274 a53c
000002f0: 14f5 74bd 0e6b 873d 2708 93bd b1b9 233c
00000300: 9c3a 68bd ef44 31bd 41bb 9c3b 1185 9fbd
00000310: 5e11 babc dd4a 8dbd ecdc ddbd 3478 cabd
00000320: 1584 323d b485 bf3d 25d4 c3bc abca 573d
00000330: 1882 863c dc65 d03c df1a bd3d 3a25 25bd
00000340: 6dcc 193d c8dd 0e3e a95c 123d 6633 d53d
00000350: 7c40 623b 94da c93d b0fd 8abc 32a8 503d
00000360: e6b4 133d 811d 8d3d 66de b13d 7092 0a3e
00000370: 4359 993d abd0 9e3d 5c1f 023e 08da 763d
00000380: 203b 303e c54c b3bd e6ec 01bd a0d4 14bd
00000390: 0a1a 8fbb fabc 0f3c 5c70 29bd 5f20 a7bd
000003a0: 7c04 913c 989a 42bc c2bf 02bc 7d76 aebd
000003b0: 8f5b f03c 900b 1a3d d4df 10bd 9090 f5bd
000003c0: 7ad6 e43c 27e3 a6bd b3d9 cabc eadc ebbc
000003d0: 764a a7bd 6ba9 9a3b eb5b acbd 6340 4fbc
000003e0: 39c3 aebd 5d64 38bd 1504 e53d 3c5a 253e
000003f0: 04b8 403d 0337 003e 5420 7e3d c4bc 15bc
-0.011792839 0.030568743 -0.07934728 -0.039561763 -0.11521708 -0.039906945 0.025280708 -0.05110348
0.021088468 0.022445416 -0.012250481 -0.04798217 -0.049071316 -0.030059779 0.015815021 0.070360206
0.04917386 -2.5428046e-05 0.015974615 -0.093072355 -0.058997028 0.036293067 -0.049642783 0.026051816
-0.056329537 -0.008128123 -0.059638537 0.02972191 -0.008398477 -0.0058057606 0.068149835 0.048209094
0.0030830356 -0.040386334 -0.078809075 0.019309407 0.010556442 -0.060048986 0.023462355 -0.05021516
-0.06839341 -0.07269324 0.035309434 0.0054847137 -0.122762024 0.03639032 0.014625787 -0.005230522
-0.011885697 -0.104569934 0.049848616 0.08214256 0.026582044 0.06448611 0.010905019 0.08948195
0.038892083 0.03965679 0.07878797 0.082507275 -0.0005270758 0.07018325 0.11569818 0.05147037
0.06904928 -0.0007314401 0.07754531 -0.0046235085 0.0054048016 -0.015974542 0.062672235 -0.004658502
0.020074239 -0.023871047 0.07115845 0.08476599 -0.02836911 -0.03613394 -0.045704115 -0.0021426664
-0.0032663648 -0.012369429 0.0057900124 0.03794062 -0.047330745 0.024166157 -0.00064556784 -0.028922414
0.004499233 0.03559676 -0.063382186 -0.010804653 -0.06374607 0.024734989 -0.15347505 -0.114259765
0.02608599 -0.116039485 -0.06903355 -0.107967 0.021857344 0.00785363 0.080512606 0.03547523
-0.010635195 -0.012464573 -0.01896014 0.042104322 -0.04172741 0.12799023 0.022093335 0.0064089326
0.07332371 0.06672012 0.13708216 0.120953314 0.021130271 -0.011243402 0.05711186 0.17900899
0.10811162 0.03070037 0.120186664 0.18068823 0.13059777 -0.009217888 -0.016844824 0.05567843
0.012593068 -0.0031293314 0.055565596 0.06676277 0.068829596 0.06235927 0.0039911633 -0.013761907
-0.028197672 0.08799616 0.050308313 0.05887905 -0.014527967 0.085132636 0.059580285 0.06733586
-0.04013811 0.027122753 -0.041708063 0.077659495 -0.011722751 -0.003766537 0.12391418 0.042549994
0.044734288 0.07642782 0.08227045 -0.045401182 0.10052963 -0.005295441 0.071151115 0.10499433
0.015989402 -0.003691922 0.05691425 -0.0017025841 -0.062586084 0.0062026684 -0.045349892 -0.14066774
-0.09015965 -0.13294633 -0.021687772 -0.10006174 -0.15761851 -0.09356893 -0.051526908 0.031684328
0.0040342715 0.036576126 0.05274831 -0.028888557 -0.026955325 -0.102770746 -0.030374015 0.06420717
-0.055315822 -0.0047835996 -0.02750421 0.020197157 -0.059804037 0.06612216 -0.07179289 0.009993003
-0.05669652 -0.04327863 0.0047830646 -0.07789052 -0.02271336 -0.06899045 -0.10833153 -0.09886208
0.043582994 0.09351674 -0.02390487 0.052683514 0.016419455 0.025439195 0.09233641 -0.040318705
0.03754847 0.1395179 0.0357329 0.10410194 0.00345233 0.098561436 -0.01696667 0.050941654
0.03606119 0.06890393 0.08684997 0.13532424 0.074877284 0.07754644 0.12707275 0.060266525
0.17210054 -0.08754877 -0.031720065 -0.036335588 -0.004367118 0.008773083 -0.04136692 -0.08160471
0.017702334 -0.011877678 -0.007980289 -0.085186936 0.029340534 0.037608683 -0.03536971 -0.11990464
0.027934302 -0.081487946 -0.02476201 -0.028791863 -0.08168499 0.004719903 -0.084159695 -0.012649628
-0.085333295 -0.04501759 0.11182419 0.16147703 0.04705049 0.12520985 0.06204255 -0.0091392435

conv2.0.bias f4 [16]
00000000: fbfd b83e eb90 aa3c 022b 8dbd b068 2c3e
00000010: d015 79bc 4881 3739 59a9 ebbe e9d3 a43d
00000020: 35fe 09be 2cdb ef3c a0e3 a03d 31b7 12be
00000030: cb3b 7c3d c57e 98bc 8174 c23d a9ee f8bc
0.36131272 0.020821055 -0.06892969 0.1683681 -0.015202954 0.00017500401 -0.4602764 0.08048231
-0.13475879 0.029279314 0.07855916 -0.14327694 0.06158046 -0.018615136 0.094948776 -0.03038724

fc1.0.weight f4 [256, 400]
00000000: eda5 23bd d05d 923c c929 04bb 5be2 24bd
00000010: 0ce2 61ba 8030 f03b 6862 073d d701 94bc
00000020: ed01 7f3a 41e6 043d 4a78 013d e000 563c
00000030: c673 083d 38b7 8d3d 9007 38b9 3cb5 3b3d
00000040: d94e 563d 4fb6 dcbc 379d c03c 12d5 283d
00000050: 6e25 8f3c 70af 2e3d 3d1c 813c 2212 343d
00000060: 55fd 773b 8848 18bd e0b8 3d3d 55bc ea3c
00000070: ccf3 523d 8304 f33b 5c6f d53c e110 293d
00000080: c221 a33c 73ed b0ba b7be c43b 5da6 b3bc
00000090: a1c6 8e3c 6802 99bb 9cec 6b3c 2641 19bd
000000a0: 1412 4d3d 8a3d aebc 97fb 283d e07b 563d
000000b0: b8c1 12bd 4f86 5c3d 7996 80bc eff6 823c
000000c0: d53a 4a3d f5a4 8fbb 5477 203d 2533 11bd
000000d0: aadc a1bc 4716 30bd 7587 f8bc 4ad0 123d
000000e0: 5927 d03c 0e07 31bb 4e6c 563b c851 3bbd
000000f0: 13d9 0a3d 272f 08bc 0e46 6cbc 54c1 25bd
00000100: a258 053d 8df7 5c3c 3c62 4e3c 8c65 acbb
00000110: 583d 38bd d019 723c 7623 55bc fe03 49bc
00000120: 99a0 0cbd e0ef 07bd 2520 313d d13d 063d
00000130: 833d 59bc 2108 5a3c 3345 c0bb 6a37 5b3c
00000140: 1ae6 dc3c 11dc 39bd eb32 383d d6d2 1e3d
00000150: 741c b93c a6be f9bc dad0 593b 1a03 0bbd
00000160: ee47 003d e51c edbb 81e4 14bc 3007 4fbd
00000170: 2a1a d33c 7ebe 0c3d 3717 7b3d 7686 cabb
00000180: 0327 183d a87f 043d 5a7d 4c3d 22b9 8a3d
00000190: 6d1a 46bd 8ab4 c03a bea9 a9bc 666d dabc
000001a0: 78a5 023d 3a9f 33bc 1002 8c3b ab8b ea3c
000001b0: 5774 f33c 5f7d be3c dbf9 49bc 47d7 45bd
000001c0: 0c9c 51bd a8e9 3c3c f54f aebb 0abc 0fbd
000001d0: 5a7d 843c dc6e 293d b622 ce3c 4edd 3dbc
000001e0: bb06 b43b 6917 11bd ff9f 9d3c e252 2ebd
000001f0: 94f1 f33c e7a0 a3bc a102 abbc 3932 2dbd
00000200: 7959 9abc 83f1 73bc 590f fdbc 579d 003d
00000210: 3b43 d53c 8029 3bbd f6ab dbbb d3e7 b83b
00000220: 802c 1b3d fb0d 57bc 3798 013d a03a 2bbb
00000230: 60b9 ccbc 5c15 a33c 4856 36bd ac74 503d
00000240: ca2b 8a3d 59c6 a13b 011d cc3c 6fd7 873d
00000250: 0275 1b3d cc53 923d 9c10 c83c 5fce cfbc
00000260: ed29 49bb 4c2e 2fbd 5d62 123d 16aa 4fbc
00000270: 4365 8e3c 662d a9bc b296 163c c867 5a3a
00000280: 75fb d03c 8b53 9abc 90f5 20bd 3bac 4abb
00000290: 058a 0dbd c986 44bd 3242 3e3b e83d 5cbd
000002a0: 71e6 3fbd 5684 a5bc f2b2 8b3c 1dbd d6bc
000002b0: 2182 2abd da6e 11bd a5fa f73c 4e63 a73c
000002c0: 454b a2bc c7ee 18bd fe90 b238 70c1 af3c
000002d0: 2a5d 463b bdeb 153d db97 3b3d 5f82 803c
000002e0: 8c42 183d 8072 b43c 2ce2 8fbc e1f6 4b3c
000002f0: 6e22 2d3d e882 d9bb 232b 36bb 77f4 96bc
00000300: bdc0 07bd ec3c b53c a664 593d 29c8 ccbc
00000310: 6f95 943c 3dd9 093c 7c7e 573c 6bdc 2d3d
00000320: bb56 733d 7c40 3a3d 75f5 2cbd 315b dcbc
00000330: 0cb0 d83c 0cec 99bb b655 db3c b2a8 05bc
00000340: c1c3 903c 674e 0c3d a5e3 d83c 0546 333d
00000350: c49b 663a cad6 fa3c b90a 643c 339b 91bc
00000360: 7fea 36bd dca4 063d 0ce9 b5bc da11 d23c
00000370: c82e 3a3d 588c e7bb 7af9 57bd 038a 57bb
00000380: 2ac6 d3bc 24af 6d3b 4513 99bc 212a 223d
00000390: 9e36 3bbd b57f 05bd 76aa d53c fd86 063d
000003a0: b9dd 8f3d b94c 793c a7bb cbbc 8d99 463d
000003b0: dd51 313d 2b75 693d 216b 86bb c54b 80bc
000003c0: 72bf 4eba e355 003d aaab 233d bb91 09bc
000003d0: 91e4 fd39 2fc0 c63c 8afd b43d 60df 8f3c
000003e0: cc37 943d 641d b1bc d818 57bd 9abc 4cbd
000003f0: 13c4 003d 7b49 33bd 330f 43bc ba79 41bd
-0.03995316 0.017866999 -0.0020166507 -0.040254932 -0.00086167525 0.0073300004 0.033052832 -0.018067284
0.0009727765 0.03244615 0.031608857 0.013061732 0.033313535 0.06919712 -0.00017550425 0.045827135
0.05232129 -0.0269424 0.023512466 0.041218825 0.017473903 0.04264778 0.015760535 0.043962605
0.0037840207 -0.037178546 0.04631889 0.028654257 0.051502034 0.0074163093 0.026054077 0.041275863
0.019913558 -0.00134985 0.0060041803 -0.021929914 0.017428698 -0.0046694763 0.014399674 -0.037415646
0.05006607 -0.021269578 0.04125556 0.05236423 -0.035829276 0.053839024 -0.015696751 0.015986888
0.049372513 -0.004383678 0.0391763 -0.035449166 -0.019758541 -0.042989995 -0.030338028 0.03584317
0.025409387 -0.0027012262 0.0032718363 -0.04573229 0.033898424 -0.008312023 -0.014420999 -0.040467575
0.03255523 0.013486755 0.012596663 -0.005261129 -0.044980377 0.014776662 -0.013008943 -0.012269018
-0.034332845 -0.033187747 0.043243546 0.032773796 -0.013259294 0.013307602 -0.005867624 0.013379911
0.02696519 -0.045375887 0.044970434 0.038775288 0.022596575 -0.030486416 0.0033236057 -0.033938505
0.031318597 -0.0072361105 -0.009087683 -0.050543964 0.025769312 0.034361355 0.061301436 -0.00618058
0.03714658 0.032348305 0.049924232 0.067735925 -0.048365045 0.0014702242 -0.020710822 -0.026663493
0.031896085 -0.010963256 0.004272707 0.028631052 0.029718561 0.023253141 -0.012327637 -0.048301008
-0.05117421 0.011530317 -0.00531959 -0.035091437 0.016173054 0.04136549 0.025163036 -0.011588408
0.0054939664 -0.035422716 0.019241331 -0.042559512 0.02977828 -0.019974185 -0.020875277 -0.042284224
-0.018841492 -0.014889124 -0.030891107 0.03140005 0.026033035 -0.045693874 -0.006703849 0.00564287
0.037884235 -0.013125892 0.031639304 -0.0026127473 -0.024990737 0.019907646 -0.044515878 0.050892517
0.06746633 0.004936975 0.024916174 0.066328876 0.037953384 0.07144889 0.024421982 -0.02536696
-0.0030695156 -0.04276876 0.035738338 -0.012674829 0.01738227 -0.02065153 0.009191202 0.00083315047
0.025510529 -0.018838665 -0.039296687 -0.0030925411 -0.034555454 -0.047980104 0.0029031155 -0.053769976
-0.046850625 -0.020204704 0.017053101 -0.026213223 -0.041628007 -0.035506107 0.030270884 0.020433094
-0.019811282 -0.03733709 8.514708e-05 0.021454543 0.0030267932 0.03660177 0.045799118 0.015687166
0.03717284 0.022027254 -0.017563902 0.012448997 0.042269163 -0.0066379197 -0.0027796708 -0.018427117
-0.033142794 0.022123776 0.0530745 -0.024997788 0.018137662 0.00841361 0.013152715 0.042446535
0.059408884 0.045471653 -0.042226274 -0.026898952 0.026451133 -0.0046973284 0.026774269 -0.008157896
0.017671468 0.034254458 0.026475737 0.043767948 0.00087970146 0.030619998 0.013918572 -0.0177742
-0.044657227 0.032872066 -0.022205852 0.025643278 0.04545477 -0.007066291 -0.052728154 -0.0032888658
-0.025851328 0.0036267722 -0.018685946 0.03959096 -0.045706384 -0.032592494 0.026082259 0.03284358
0.07024712 0.015216046 -0.024869753 0.04848628 0.04329096 0.056996506 -0.004102126 -0.01566113
-0.0007886804 0.031331908 0.039958633 -0.008396561 0.00048426216 0.024261562 0.08837421 0.017562568
0.07237205 -0.02162046 -0.052513927 -0.049984552 0.03143699 -0.04377125 -0.011905479 -0.047235228

fc1.0.bias f4 [256]
00000000: 6a34 263d 5a16 9a3c 087c 953c 5b15 58bc
00000010: 953a dfbc 7164 093d b28d 2dbd 3edd 613d
00000020: 94f0 9fbc e316 33bd 3360 393d c264 2a3d
00000030: 1314 3dbc 2d99 2bbc 9bc6 a93b 7a37 37bc
00000040: 41d5 333d 0200 6b3c c543 143d 72f9 963c
00000050: cea7 eebb 2ac6 293d 4db9 9d3c 2b9a 8abd
00000060: 36bc 753d 44d7 2a3d 89cf 5dbb bd0d 8cbb
00000070: 5a06 dcbc 1804 38bc ef80 ae3c fa9d 5b3c
00000080: 5698 53ba b6c6 6ebb d96a e2bc 4e7c 10bd
00000090: 45bf 88bc 80d0 16bd 7cfc 113d 534f dd3c
000000a0: 1f3f 34bc 0b42 f03c ae3c 623d 1022 463d
000000b0: 5149 36bc 3997 45bd 2f7a d43c 19e2 333d
000000c0: a47f 263c 9fdf 44bc 58d3 233d d374 343d
000000d0: 5fae fabc 53fa 95bb b5cb 0abd 0ffd ffbb
000000e0: 6bc2 00bd 1123 57bc 7f76 8cbd 4ea2 9aba
000000f0: 542e 78bb 4be9 5e3d 7eae 86bd 6e6c 3c3d
00000100: def0 f13a 1b43 76bd feb6 7a3d 04df ce3c
00000110: cd43 8fbc 354b e0bc 8ffb 04bc 463e 173c
00000120: fc06 98bc 9f5b c83c 3612 29bd 2777 fb3c
00000130: c950 cd3c 978c 2ebd 92f6 d8bc d3f4 393c
00000140: d5b2 94bc d64e e2bc 5302 9f3d a38d ecbc
00000150: 9f47 bb3c 3e67 403d 01f1 d23c 461d 5c3d
00000160: 542c febc 6ff4 743d be34 eebc c267 3f3c
00000170: 8e4e 3f3d 98b6 453c a963 3d3d ed2d 84bc
00000180: ed92 f7bc c5d2 18bd 78ac 133d e5fe 14bd
00000190: d395 a8bc d6f6 1abd ec62 aebc a3b2 13bc
000001a0: 71a7 cfbc cf0d 46bd 0e7f 15bd f8c9 a8bc
000001b0: ebfe bfbc 2176 d93c 19ef 20bd 245a 72bc
000001c0: 5fcf 22bd 61b0 55bd 0b16 6c3c 42e0 debc
000001d0: 24b8 263b 27b2 1f3b 5fd4 3ebd 62de 30bc
000001e0: 10c4 b43c dc19 843c 3e14 26bd 289b 11bd
000001f0: 9c7e c33c 7c7a f73c 0a99 e7bc 62d3 cabc
00000200: 50ae 49bc c3c8 273d 88cb 293d 8a62 233d
00000210: 8477 903c aa01 f8bb e862 b93c f55a b7bc
00000220: c766 5ebc 8644 163c d802 35bd 8b1d 35bc
00000230: 1441 d6bb 5959 c63c 9559 023d 7093 28bd
00000240: 6369 d43c 3313 ccbc cd03 0c3d b611 74bd
00000250: 5194 193d 7401 c63d 6a73 303c a3e9 19bd
00000260: f32b a53c 0d27 0a3c c505 00bc e4eb 2e3c
00000270: 1265 493d e372 143b 08e7 e1ba dcc2 273d
00000280: 6e77 7dbc d293 fbbc f439 97b9 4948 a0bc
00000290: f0c4 3c3b 9f62 62bc c7f8 9cbc 817e 893d
000002a0: 5398 3cbc d73d 1c3c 0deb c6bc b9f9 c53c
000002b0: 0ebf f237 887d 14bd 3759 f8bc 1885 afbb
000002c0: 5669 48bd 92b4 cfbc a1f4 2bbc 4110 a5bb
000002d0: 3d3e ccbb 8756 fe3c 0b31 943d 2405 49bc
000002e0: 63a1 1cbd 816a 8abc 753f 01bd dee9 183d
000002f0: ec8b 2ebc 5561 9cbc a0df b0bc a92a 513d
00000300: 1d94 8b3b 0ac1 86bd f03c c23a 40c4 c3bb
00000310: 86c4 b7bc 09e7 16bd 6b11 2b3d 053d 623d
00000320: 4c9e 3a3d f888 363d de2a 103d fb79 033d
00000330: 26a2 613c a9f3 833c 7139 c53c 82df 123d
00000340: 944f 063d 0b23 863d 2a7f 53bc b23e 833c
00000350: f6fc 2cbd 9510 453d 5962 373d 13a0 80bc
00000360: e036 61bd b9a6 843c 568c 8abc dbdf 023d
00000370: ee1b 10bd bc3a 973d a859 87bc ffe7 33bd
00000380: 6ccf bbbc a480 a83c b7a1 de3c 0445 bc3a
00000390: 7b1e 8dbc a342 a3bc c9b1 33bd 730d cc3c
000003a0: d1b4 cc3b 56ed c93c faba 6b3c 205e fd3c
000003b0: ae54 e13c d9a6 9fbc f962 5d3d f902 193d
000003c0: 7503 ef3c 9917 273d 3b6f 66bd 4280 57bc
000003d0: 4e71 c0bb 13db fc3c 20e5 d13b abcd 923c
000003e0: c493 c9bc cc76 90bd 579a 0f3d 5223 8bbc
000003f0: 3956 f7bc e37b 873d 2d8c 18bd 80d7 09bd
0.04057733 0.018809486 0.01824762 -0.013188685 -0.027249614 0.033543054 -0.04237146 0.055142634
-0.019523896 -0.043723 0.04525776 0.041599996 -0.011540431 -0.010473532 0.0051811463 -0.01118266
0.043904547 0.014343264 0.036197443 0.018429492 -0.0072831875 0.04144875 0.019253397 -0.067676865
0.059993945 0.0417092 -0.0033845624 -0.0042740987 -0.026858497 -0.011231445 0.021301715 0.013404364
-0.0008071711 -0.003643436 -0.02763884 -0.035274796 -0.016692767 -0.036819935 0.03564118 0.027015364
-0.011001377 0.029328367 0.05523365 0.04837233 -0.011125878 -0.04823992 0.025937168 0.043916795
0.010162268 -0.012016206 0.039996475 0.044056725 -0.030600725 -0.00457696 -0.033885676 -0.0078121494
-0.03143541 -0.013130919 -0.06858539 -0.0011797638 -0.003786941 0.054421704 -0.065762505 0.046001844
0.0018458625 -0.06012259 0.06120967 0.025252827 -0.017488385 -0.027379612 -0.008116617 0.009231156
-0.018558018 0.02445775 -0.041277133 0.030696465 0.025062935 -0.042614546 -0.026484761 0.011349875
-0.01815168 -0.027625483 0.07764115 -0.028876131 0.0228613 0.04697346 0.025749685 0.053738855
-0.031026997 0.059803423 -0.029077884 0.011682453 0.046705775 0.0120674595 0.04623762 -0.01613518
-0.030221427 -0.03731038 0.03605315 -0.0363759 -0.020579254 -0.037833057 -0.021287404 -0.009014758
-0.025348397 -0.048353013 -0.036498122 -0.020604119 -0.023436984 0.026545586 -0.03929052 -0.014791999
-0.039748546 -0.05217016 0.014409552 -0.027206544 0.0025439346 0.0024367662 -0.04658925 -0.010795208
0.022066146 0.016125612 -0.04054665 -0.03554836 0.023864083 0.030209772 -0.028271217 -0.024758998
-0.012309626 0.040962946 0.04145387 0.039888896 0.017635114 -0.0075685577 0.02263017 -0.022382239
-0.013574309 0.009171611 -0.044192165 -0.011054407 -0.0065385196 0.024212526 0.031823713 -0.041156232
0.025929159 -0.024911499 0.034183312 -0.059587203 0.03749496 0.09668246 0.010769704 -0.03757633
0.020162558 0.008432162 -0.007813876 0.010676358 0.049168654 0.0022651486 -0.001723499 0.040957317
-0.015470369 -0.030710135 -0.00028844143 -0.019565718 0.0028803907 -0.013817458 -0.019161595 0.06713582
-0.011510926 0.009536228 -0.024282003 0.024166929 2.8937615e-05 -0.03625253 -0.030315978 -0.005356442
-0.04892858 -0.025354657 -0.010495336 -0.005037338 -0.0062330053 0.031047119 0.07235917 -0.012269292
-0.038239848 -0.016896488 -0.031554658 0.037332408 -0.010653477 -0.01908938 -0.021591008 0.051066075
0.0042596 -0.06579788 0.0014819186 -0.0059743226 -0.022432577 -0.036841426 0.041764658 0.055233974
0.04556112 0.044564217 0.03519713 0.03209875 0.013771569 0.016107397 0.024075242 0.035857685
0.032790735 0.06549653 -0.012908736 0.016021106 -0.04223343 0.048111517 0.044771526 -0.01570133
-0.054983974 0.01619278 -0.01691262 0.031951766 -0.035182886 0.073842496 -0.016522244 -0.04392242
-0.022926055 0.020569153 0.027176721 0.001436383 -0.017226448 -0.019929236 -0.04387072 0.024908757
0.006247141 0.024649303 0.01438784 0.030928671 0.027506199 -0.019488739 0.054049466 0.03735635
0.029176453 0.04079399 -0.05625842 -0.013153138 -0.005872882 0.030866181 0.0064054877 0.017920336
-0.024606593 -0.07053909 0.0350593 -0.016984615 -0.030192481 0.066154264 -0.037243057 -0.033652782

fc2.0.weight f4 [128, 256]
00000000: 1c8e 54bd 65e9 75bc 2f97 2d3d 9450 303b
00000010: 1b28 e13c 90dc febc 315a a33c 5161 223d
00000020: 47ba 2e3c 2145 09bb 463f 8cbd 4b2d 043d
00000030: 83b4 c73c 5911 81bd 26ec d9bc 9812 c8bd
00000040: 81f6 3dbd a1f9 783d 351d 893d ea90 1abd
00000050: a24a c53d f0be 533c ec2f 063b 7844 afba
00000060: 8bb8 23bd 5e63 61bd 8b98 5a3d 9ca0 8f3d
00000070: 9396 bdba 030d c3bc f697 e63a ea7a 053d
00000080: fd37 60bd 3f2c 353d ba14 9cba d5c3 883c
00000090: 8dff 84bc 7645 89bd 406e 11bd bcce 1fbd
000000a0: a05e ef3c 8ed1 f83c 44c1 c33c 9ae6 da3b
000000b0: 0f09 2e3d 8ac6 2d3d 1a78 373d ba5f 143d
000000c0: 6138 623d dddd 4abc 013f 9f3d 5c36 86b9
000000d0: 7985 87bd e99e d9bc a9a4 8dbd fa57 c4bc
000000e0: 7078 67bd 668b 093d 8b90 1d3c f4c7 06bd
000000f0: cbf1 f4bc e040 f73b 5b56 463d 13f4 47bd
00000100: d0cd 9b3d d621 0f3d 9608 0ebd 7626 2e3d
00000110: 3555 13bb f93d 26bc 37b1 f8bc e9b8 10bd
00000120: e6c4 08bd 211f e43b 071c 773c 4668 a23c
00000130: b1cb bd3c aa7a 793d b807 c7bb a7d9 99bb
00000140: ff6b 813d 3b06 b7bd 3f5f 543b 2f90 5ebd
00000150: cf4e 963c 3dd1 90bd 6fce cc3b d365 673d
00000160: b081 7d3d da0d 2dbd 741a 46bd b982 733d
00000170: d996 893d 75c5 01bc 2f1b 8b3c 04b2 493d
00000180: 53af 163d 314a 4dbd 822a 38bd 3cc9 a93c
00000190: 79c8 cc3b 9df2 a6bb 0b48 9e3c 489f 72bd
000001a0: 1c6d 4ebd bdd0 1bba f1fb ee3c 756d a53c
000001b0: e0b2 bc3c 66c5 1fbd 2745 b5ba 119c f33c
000001c0: 7c44 c8bd 01ab ec3c 395c 2d3d b478 c53d
000001d0: 4fca b03d 6762 3dbb 9b30 5ebc 8662 1b3d
000001e0: fb20 aabd 99b0 60bd 08b1 003d 32db 583c
000001f0: 7727 40bd 195f 84bc edc1 9dbc e11f 963c
00000200: 2932 95bc ec07 4dbd d5b2 843d 55e5 bc3b
00000210: 98fa 90bc d5f7 74bc a7ff a6bd 21bd 943c
00000220: 53a5 f0bc b6a7 bcbc ee71 1e3a 83ae f73d
00000230: dec9 f93a f1e4 2cbd 2c02 4f3d a106 36bc
00000240: c147 a6bc f38e 62bc 1fd3 033a 9627 bc3d
00000250: ff6d 773d 141a 113d 29c9 0f3d 1feb 583a
00000260: 4425 ac3c 1132 6abd 75d5 983c babe 9fbd
00000270: 406c 053d b1c0 373d 0397 c53d 77bd 823c
00000280: 6328 61bd cf51 0dbd 5a57 3e3d 4a8c 38bc
00000290: 4339 36bd 5928 423c 38a5 86bc a13e 8fbc
000002a0: 2f37 6b3d d3cf 543d e531 86bc 0bfb 27bd
000002b0: d08b 083c 423e e0bc b92f 53bd 3a0f 8a3c
000002c0: 4576 013d 2a13 cd3c 65e4 7ebb a94f 55bd
000002d0: c8c5 8cbc b46b 663c 4243 81bd 8489 1dbd
000002e0: 9194 49bd ea36 59bd 70da c1bc e54e 78bd
000002f0: bd69 f1bc c53e f3bc 16c8 8dbd d24a ef3c
00000300: 3217 9dbd e3fc 79bd cc33 a0bd ae7c 433d
00000310: 52e0 efbb 977b a6bc 5f45 723c 7a35 28bd
00000320: 49f4 6bbc ec1f c33d 6a78 35bd 444e 273c
00000330: 6544 58bc ae29 113c d6c8 1cbd 67e1 02bd
00000340: 8890 373d 6bb7 b4bc 2a41 fdbc 62d7 2dbd
00000350: 6f3f 69bd 318d e3bc c55a aebd 29f2 5e3d
00000360: 06d9 073d d967 093d 89b8 4abd 0784 213d
00000370: cf5c a4bd 0aad f8bb 5b6c 9e3d b157 933c
00000380: ed55 113d bd59 fbba 26cb fb3c e7e9 bcbc
00000390: 8e51 853b 2e62 e83d 6835 c3bc 0acd c3bd
000003a0: daf0 84bd 04bb 673d 38d3 a3bc 80e9 32bd
000003b0: a561 6f3c e4e1 b23d 4070 503b bca2 2a3d
000003c0: 64f8 88bc e62f 65bd 1691 b13d ed07 ffbb
000003d0: 916f a6bd d6c7 853d 3f63 0ebd 4f6a 773d
000003e0: 1bed 2dbd 5227 6d3d 4e46 a9bd 43f2 0abd
000003f0: 960e 06bd b5bd efba 1070 0a3c 7618 6abd
-0.05189334 -0.015009259 0.042380508 0.0026903497 0.027484944 -0.031111032 0.019940468 0.03964359
0.010664529 -0.0020945745 -0.06848006 0.032269757 0.024378067 -0.06302137 -0.026601862 -0.097691715
-0.046377663 0.06078494 0.06695024 -0.037735857 0.09633376 0.012923941 0.002047534 -0.0013371846
-0.039970916 -0.055026405 0.053368133 0.07013056 -0.001446443 -0.023809915 0.0017592895 0.032587923
-0.054740895 0.04423165 -0.0011908032 0.016694942 -0.016235137 -0.06702702 -0.035505533 -0.039015517
0.029219925 0.030373361 0.023895867 0.006680322 0.042489108 0.04242567 0.044792272 0.036224104
0.05522955 -0.012381998 0.07775689 -0.00025598973 -0.06617255 -0.026565032 -0.06916172 -0.023967732
-0.056511343 0.033580206 0.009616981 -0.032905534 -0.029900452 0.0075455755 0.0484222 -0.04881675
0.07607615 0.034944378 -0.034676157 0.042517148 -0.0022481207 -0.010146611 -0.03035794 -0.035332594
-0.033390902 0.0069617187 0.015082366 0.019825112 0.023168417 0.060907997 -0.006073918 -0.0046951356
0.06319427 -0.08936735 0.0032405404 -0.054336723 0.018348126 -0.07071159 0.0062501947 0.05649359
0.061891258 -0.042249538 -0.04836507 0.05945084 0.06718225 -0.007920613 0.016980736 0.049242035
0.036788296 -0.050119583 -0.044962414 0.020725839 0.006249484 -0.0050948397 0.019321462 -0.059233934
-0.050397024 -0.0005943885 0.02917287 0.020193795 0.023034513 -0.039006613 -0.0013829813 0.029737504
-0.09778687 0.028890135 0.04232428 0.09642163 0.08632337 -0.0028897764 -0.013561393 0.037935756
-0.08307072 -0.054855917 0.03141883 0.013235854 -0.046912637 -0.016158627 -0.01925751 0.018325748
-0.018212395 -0.050056383 0.06479422 0.005764643 -0.017697617 -0.014951666 -0.081542306 0.01815659
-0.029375708 -0.02302919 0.00060441985 0.12093832 0.0019057353 -0.042210523 0.05053918 -0.011109979
-0.020297887 -0.013828027 0.0005028713 0.09187238 0.060407635 0.03542526 0.03510395 0.0008274782
0.021013863 -0.057176653 0.018656472 -0.0780005 0.03257394 0.0448615 0.09647944 0.015959485
-0.054970156 -0.034501847 0.046470024 -0.011263916 -0.044488203 0.01185044 -0.016436204 -0.017485918
0.057425674 0.05195601 -0.016381213 -0.041010898 0.008334115 -0.027373437 -0.051559184 0.016852964
0.03160693 0.025033552 -0.0038893458 -0.052077923 -0.017184153 0.014063764 -0.063116565 -0.038461223
-0.04921395 -0.053030886 -0.02366373 -0.060622115 -0.029469365 -0.029693017 -0.06922929 0.029210482
-0.0767044 -0.061032187 -0.078223795 0.047726326 -0.0073204422 -0.020322604 0.014787047 -0.041066624
-0.014401504 0.09527573 -0.04430429 0.010211531 -0.0131999 0.008860035 -0.03827747 -0.03195324
0.04481557 -0.022060117 -0.030914862 -0.042441733 -0.05694526 -0.027777286 -0.08513407 0.05443016
0.033165954 0.033546302 -0.049492393 0.03943255 -0.08025514 -0.0075889872 0.07735511 0.01798615
0.035482336 -0.0019176524 0.030736517 -0.023060752 0.00406856 0.11346851 -0.023829177 -0.095605925
-0.06491251 0.056574836 -0.019998178 -0.043679714 0.014610683 0.087344915 0.0031805187 0.0416591
-0.016720004 -0.055953883 0.08670251 -0.0077829272 -0.08126748 0.06532256 -0.034762617 0.06040412
-0.04246245 0.057898827 -0.08265363 -0.033922445 -0.032728754 -0.001829079 0.008449569 -0.057152234

fc2.0.bias f4 [128]
00000000: e8b8 41bd 3b18 653c 1770 74bc 9973 0d3c
00000010: b716 dbbc 76ec 73bd 88ed 8abb f37e 6b3d
00000020: 0d23 ef3d 2004 d93d 8d7d 15be 7860 67bd
00000030: 05c0 efbb 18fc aa3d e3a9 58bb 7aa0 b03d
00000040: 07f7 053e a45d cb3c 6d66 073e de5c d93c
00000050: 71ff 1b3d 0999 9f3c beb1 023d 3000 ca3c
00000060: 2912 65bd 1dd0 513c 648e 213c c0e7 f63c
00000070: 56ff 3b3c 092b be3d 5294 25bd 09a3 43ba
00000080: 371a ca3b 9237 563d cc7b 86bd fed2 fe3c
00000090: 1d8f ba3d 6e16 f2bc e387 b0bc 2902 84bd
000000a0: 2b9d 1dbc 6ef5 a83d de3b 19bd 6624 e1bc
000000b0: ff32 d83c 5f0b a9bc dbd4 afbc 9723 02bd
000000c0: b720 053d e50c ca3d 5cf6 373d ab3d ecbb
000000d0: 2682 70bd a13c c33c c685 07bd 059a a63d
000000e0: 2de9 bdbb 403c f838 5411 e4bc c017 973b
000000f0: 3583 1b3d 8c35 cabd f669 1bbd 4f9c 4dbc
00000100: 1d5a 52bd 9046 1cbc a641 a7bd 2e27 5cbd
00000110: c0f0 233d 02b1 5e3d 85b6 e33d 6c39 3dbd
00000120: 7775 193c 611f 72bc 48b6 f4bc 001b 9fbd
00000130: ea87 2f3d f5a9 173e dcd0 09bd 1c22 cebd
00000140: d979 8e3c 657d e0bc ae94 013d b6f6 fe3c
00000150: 71e7 c83c db97 80bc 1ec8 3abd b604 8f3d
00000160: 6d4f 0e3d 934c 45bd 1df0 7d3c e23e ae3d
00000170: 99af 903d f39f 963b 93d7 983d d58b ce3a
00000180: fbbc 263d 8353 9fbd 010f 01bd e94e 443d
00000190: 9a96 e7bc 58f2 a23c f4b6 57bd f1b6 263d
000001a0: b324 54bc 66ce df3d f109 78bd 09b2 6fbd
000001b0: 6f53 e93c a5c9 bd3d a0bb 16bd 1c0f 423d
000001c0: 11bb 33bb 54a4 3dbd ba00 8d3d 5070 d03c
000001d0: 61ac 3bbc e42b 9dbd 93ef 2c3c 9312 14bd
000001e0: c94f 0b3c 55f7 fa3c a4cc bdba 6806 de3c
000001f0: 96e1 40bc ca76 65bd ed48 9dbc 8b0e 883d
-0.04729548 0.013982828 -0.014919302 0.008633518 -0.02674423 -0.05955168 -0.0042397417 0.057494115
0.11676607 0.1059649 -0.14598675 -0.056488484 -0.0073165917 0.08348864 -0.0033060245 0.086243585
0.13082515 0.024824925 0.13222666 0.02653354 0.038085405 0.019482153 0.03190779 0.024658293
-0.055925522 0.012805966 0.009860609 0.030139804 0.011474451 0.09285552 -0.040424652 -0.0007462954
0.006167676 0.05229909 -0.06566581 0.031106468 0.09109328 -0.029551711 -0.02154917 -0.064457245
-0.009619991 0.08249937 -0.03741061 -0.027483176 0.026391504 -0.020635305 -0.021463802 -0.031772222
0.032501902 0.09865741 0.04491268 -0.0072095 -0.05871787 0.023832621 -0.03308656 0.08134846
-0.005795619 0.00011836784 -0.027840294 0.0046109855 0.037966926 -0.098734945 -0.03794285 -0.012549474
-0.05135547 -0.009538308 -0.08166818 -0.053748302 0.04002452 0.054368027 0.11118797 -0.04619734
0.009366385 -0.014777989 -0.029872075 -0.07768822 0.042854227 0.14810927 -0.03364645 -0.100650996
0.017392086 -0.027403543 0.031635933 0.0311235 0.024524422 -0.01569741 -0.045601003 0.069833204
0.034743715 -0.04816873 0.015499142 0.08508088 0.070647426 0.004596704 0.074629925 0.0015758226
0.04070757 -0.077796005 -0.03150845 0.047926817 -0.028270055 0.01989095 -0.052664712 0.04070181
-0.012948203 0.10928039 -0.060556356 -0.058519397 0.028482167 0.09266976 -0.036800027 0.04737769
-0.0027424733 -0.046299294 0.06884904 0.02544418 -0.011454673 -0.07674387 0.010555166 -0.036150526
0.008502909 0.030635515 -0.0014480543 0.027102664 -0.011772534 -0.05602149 -0.019199813 0.06643399

fc3.weight f4 [100, 128]
00000000: db81 a4bd 1824 a7bd d803 bfbd f691 afbc
00000010: 93f9 223d 561a dd3c 406d fbbc 1dae bc3d
00000020: ac33 ae3d 4bb0 c1bd d617 0bbd 8648 70bd
00000030: 24ff 46bd 68d9 853b 10bc 93bd 8059 fc3b
00000040: adab 46bd 5465 053b cb25 d6bc ee2d 2ebd
00000050: 0185 12bd 9d4f ac3c fa48 c6bc 35de c1bc
00000060: 7b49 9a3c b04d a23c bbe2 28bd 5fc8 c73c
00000070: a1ce 733d 253b 47bd 8fda 1abd 7e39 f7bd
00000080: 14f6 0c3d c6e8 abbc a647 803b 3b0c 3bbc
00000090: ef6c 873d 6f3b 8e3c dda6 11bd 2629 82bd
000000a0: 97b3 60bd 75fb 2abd 364a c43b 2b32 1cbd
000000b0: 6f6b e4bd e332 b0bd 255b de3c de19 c83c
000000c0: 0c84 b13d 52d1 71bd 1dbe 813d e5a4 a1bc
000000d0: 5603 10bc d034 1a3d 4716 28bd c6fa e73b
000000e0: 51f3 873d 0330 a13d 0582 cfbc 6c98 98bd
000000f0: 7651 e43c 2d8e 463c 2be7 5c3c 85f4 41bd
00000100: 987f 813d 874d 3fbc bf0f 36bd 7f93 fb3c
00000110: b0cb b5bd d962 00bd 18ac abbd 2961 213e
00000120: 057b b03d 08e1 03bb 43b2 92bd 2f4c 063e
00000130: 901c f8bc 1757 833d f0ae 3cbc 5d6f b9bc
00000140: 2d98 80bd eeeb cabd cd57 b5bb 7821 863d
00000150: 2976 dbbc aa9b 4c3d 994d a23d 667c a23d
00000160: dd27 6d3d f09a 953d d3df 1f3d 082a e43c
00000170: 502d 993d 89c1 c73c 3c59 10bd 4d07 f4bb
00000180: 6094 02be d7b3 913d 5853 5e3d bd49 9ebd
00000190: cef9 1abd d2f2 bd3c 534d 3bbd a52b e7bc
000001a0: 1c72 80b8 a695 013e 1502 29bd efb8 aa3d
000001b0: a699 b0bc b957 683b 138e 203d 5410 ff3c
000001c0: af8f 87bd 417a 53bd 1b9c 023e 3176 85bd
000001d0: 52f8 f03b 841d 1f3c 55b2 d4bc d1a2 133d
000001e0: 3c43 8eb9 4702 5e3d 6cd4 74bd 0bb5 9e3d
000001f0: b9a6 563c 3f97 903d 9089 85bc 6d4e 773d
00000200: a69d 2c3c fb3f b7bd fb18 e53c 0377 53bc
00000210: f4a8 a63c a3db 2dbd ab45 19bd 2983 56bd
00000220: 3f6e 9b3d f7ad e33c e2c2 1fbd 9077 b43d
00000230: b9df 3ebd 55bb 90bc 6568 86bd 48a6 723b
00000240: 9ee5 eebc 660c c5bd bd62 2dbd 8a20 8b39
00000250: b656 c3bc b96f a03d 002e 1ebd 7ac3 cdbc
00000260: db88 743d ee28 21bd a3ff abbc 0035 c13c
00000270: 9476 66bd 6d9e acbc b0dd 95bd afec c23d
00000280: 127d afbc 9bbb 84bc 1fe9 e9bc 9af5 aabd
00000290: 7bde df3d 0ace 093d cf70 15bc 971c be3c
000002a0: ff96 8fbd 2fe3 df3d 45b5 fa3c c75f b63c
000002b0: 6211 f8bc 8cfb 89ba 5258 03bd c439 a63d
000002c0: e1b7 64bd 51e8 273d 772e da3c d4dd 993d
000002d0: dd4a 453c d87b 813b e603 a93d 2a50 493d
000002e0: 0d72 b73d 1fb7 973d 11fe a23d 70c5 bd3d
000002f0: e4ed f8bb 0643 3b3d 83f4 12bc 424b cf3d
00000300: a8d1 bf3c bd27 b03c 32dd 5dbb 07b8 913d
00000310: 5d33 a73c 844d 82bd 1d3b 06bd dd01 b3bd
00000320: ee07 a63d 651d a9bd 6484 183d 4e69 9a3c
00000330: 944e fdbc e1ca 143d 4d15 6bbd ee11 85bd
00000340: 23b3 e3bc 9ca0 69ba f170 9bbc 8ecf 51bc
00000350: c165 773d 4cd9 a13d 901c 883d 4e4b 623d
00000360: e274 1dbc 6ad0 3ebd a767 4f3d be7b 9fbd
00000370: a441 dfbc 5f39 f73c 0773 85bd 7e40 a23d
00000380: e431 dbbc 38c0 a7bd 5182 e4bc 1d17 473d
00000390: 2cbb 6d3d 261d debd d89e 193d 6d73 db3a
000003a0: 7848 90bd 9981 57bd aa9d 6dbc 3971 2bbd
000003b0: f870 3cbd acca 6a3d 45cc 21bd c146 ca3d
000003c0: d893 04bb 3cbe 91bc f7a2 82bd f157 78bd
000003d0: 56a7 80bc 2111 403d 46ee 763d 93f4 e1bb
000003e0: 40d1 39bd 9599 6b3d 34e9 fbbb 17dd 49bd
000003f0: ef05 70bd d507 af3d feb0 8f3d f28e d3bc
-0.080325805 -0.08161181 -0.09326905 -0.021431904 0.039788794 0.026990097 -0.030691743 0.09212897
0.085059494 -0.09457453 -0.03395828 -0.058662914 -0.048583165 0.0040847547 -0.072136045 0.007701099
-0.048503567 0.0020354586 -0.026141068 -0.04252427 -0.035771374 0.021034056 -0.02420472 -0.023665527
0.018833866 0.019812435 -0.041231852 0.024387537 0.05952323 -0.04864039 -0.03780609 -0.12071513
0.034414366 -0.020985018 0.003914791 -0.01141649 0.06612574 0.017362325 -0.035559524 -0.06355505
-0.05485877 -0.041743714 0.005990292 -0.03813378 -0.11153304 -0.08603456 0.02714307 0.024426397
0.08667764 -0.059037514 0.06335089 -0.019731948 -0.008789858 0.037648022 -0.04103687 0.007079455
0.06638206 0.07870486 -0.025330553 -0.07450947 0.027870875 0.012118858 0.013482849 -0.047352333
0.06323165 -0.011676199 -0.04444861 0.03070998 -0.08876741 -0.03134427 -0.08382434 0.1575972
0.08617214 -0.0020123143 -0.07162907 0.13114999 -0.030287057 0.064130954 -0.011516318 -0.02263611
-0.06279025 -0.09908281 -0.0055341483 0.065493524 -0.026789742 0.04995314 0.07924957 0.07933883
0.057899345 0.073049426 0.039031815 0.027852073 0.07479346 0.024384277 -0.03524135 -0.0074471594
-0.12751913 0.0711438 0.0542787 -0.07728908 -0.03783589 0.023187075 -0.04572804 -0.028219054
-6.12477e-05 0.12654743 -0.04126175 0.083360545 -0.02155764 0.0035452677 0.039197993 0.031135716
-0.06619202 -0.051630262 0.12754862 -0.06516684 0.007353821 0.009711627 -0.025963942 0.036043946
-0.00027134444 0.05420139 -0.059772894 0.07749375 0.013101273 0.07060098 -0.016300946 0.060377527
0.010535633 -0.0894775 0.027966013 -0.012906793 0.020344235 -0.04244579 -0.037419956 -0.052371178
0.07589387 0.027792914 -0.039004214 0.08811867 -0.046600077 -0.017667452 -0.065628804 0.003702538
-0.029162224 -0.096215054 -0.042330492 0.0002653639 -0.023845058 0.078338094 -0.038618088 -0.025117625
0.059700828 -0.039345674 -0.02099592 0.023584843 -0.05626543 -0.021071637 -0.07317674 0.095178
-0.021421943 -0.016202739 -0.028553544 -0.08347626 0.10931107 0.03364376 -0.009121134 0.023206992
-0.07011222 0.10932004 0.030604014 0.022262467 -0.030281726 -0.0010527237 -0.03206665 0.08116487
-0.055839423 0.04099304 0.026633484 0.075130135 0.012041775 0.003951531 0.08252697 0.049148716
0.089573 0.074079745 0.079586156 0.09266174 -0.007596718 0.045718215 -0.008969429 0.10121776
0.023415402 0.021503324 -0.0033853767 0.071151786 0.020410234 -0.06362441 -0.03277122 -0.0874059
0.08106981 -0.0825756 0.037235633 0.018849041 -0.030921258 0.036326293 -0.05739336 -0.064975604
-0.02779538 -0.0008912177 -0.018974753 -0.012805833 0.060399774 0.07902774 0.06646073 0.055247597
-0.009610387 -0.046585478 0.05063596 -0.07787274 -0.02725298 0.030178724 -0.0651608 0.07922457
-0.026757188 -0.0819096 -0.027894171 0.048606027 0.05803983 -0.108454034 0.037505 0.0016742774
-0.07045072 -0.05261383 -0.014502922 -0.041856024 -0.046006173 0.05732219 -0.039501447 0.098767765
-0.0020229723 -0.017790906 -0.06378739 -0.060630742 -0.015704792 0.046891335 0.06028583 -0.0068956106
-0.045365572 0.057519514 -0.007687712 -0.049283113 -0.05859941 0.08546416 0.070161805 -0.025824998

fc3.bias f4 [100]
00000000: 91c4 14bd c679 c13c f74b 513d e978 7cbc
00000010: c8ef e6bd 1916 acbd 6bec c5bd 4202 aa3d
00000020: e996 f6bc ecff 383d 72a9 18bd 9115 38bd
00000030: 2eda d1bc c2bc 3fbd 05d3 1ebe c194 513d
00000040: 78dd a83d af98 64bd 2920 983c 364a 27bd
00000050: 9797 49bd f397 0e3d d362 fcbd b93e 4abe
00000060: a284 663d db12 c1bd e827 233d e681 603d
00000070: d677 90bd bb69 bb3d 51b6 d93d ee3e bdbd
00000080: ef8d f2bc d0e1 49bc 7498 5dbd f1b2 233d
00000090: 72ba 0dbe e789 90bd d90c d83c 8ad5 8fbc
000000a0: e040 02bd 55c9 e73c dbe5 803d 7944 87bb
000000b0: 06f5 cb3d 7afd 5a3d 6db1 cb3c 4426 673c
000000c0: fc9d 7fbb 6038 67bd 9b3f 703c c689 5abd
000000d0: e17d ba3d f7a0 aeb9 a245 d33c cf8a ea3c
000000e0: 4396 9dbb 55e8 c93c 32eb 07bc 0f20 1c3d
000000f0: 3f7a 29bd dcf0 58bd 720b e0bb a1bd 953c
00000100: 19d4 d63c 4249 b5bd 7dec 21be b644 55bc
00000110: 8f3d 0bbd 1acc 8e3d 4725 25bd dc17 fb3c
00000120: fbac d43b e8d5 fbbc 63d6 2b3c e0de 9e3b
00000130: 63a4 eabc 2e5d 553d 9b47 b1bc d6de 3fbd
00000140: 3cf8 1dbc 5482 4f3e b5e2 47bd 4c80 653e
00000150: 4633 67bb a9eb a63d 2ebc e33d 93c0 ec3d
00000160: 7060 83be 32f0 2d3d 9ddc 173d 406a d6bc
00000170: 31ae 9c3d a9ec bebd 9fe1 0fbe 605b d23d
00000180: 3a79 6c3e 742b 8dbc 0102 8abd 18a2 e93d
-0.036320273 0.023617636 0.051097836 -0.015409687 -0.112762034 -0.08402652 -0.09664234 0.08301212
-0.030101256 0.04516594 -0.03727097 -0.044942442 -0.025616731 -0.046810873 -0.15510185 0.051167253
0.08245367 -0.055809673 0.018570023 -0.040842257 -0.049216833 0.03481288 -0.12323537 -0.1975049
0.056278832 -0.094274245 0.03983298 0.05481138 -0.07054107 0.09151026 0.10630477 -0.092405185
-0.029608695 -0.012321904 -0.05410047 0.039965574 -0.13840654 -0.07057553 0.026373314 -0.017557878
-0.03180015 0.028294245 0.062938415 -0.0041280356 0.09958844 0.05346439 0.024864877 0.014108244
-0.0039004078 -0.056450248 0.014663602 -0.053354047 0.09106041 -0.00033307794 0.02579004 0.028630642
-0.0048091724 0.024646917 -0.008295821 0.03811651 -0.04137635 -0.052964076 -0.006837302 0.018278899
0.026224183 -0.088518634 -0.1581287 -0.01301687 -0.033994254 0.06972523 -0.040318754 0.030651025
0.0064903474 -0.030741647 0.0104881255 0.004848346 -0.028642839 0.052090816 -0.02164059 -0.046843372
-0.009641703 0.2026456 -0.04880019 0.22412223 -0.0035278364 0.08150417 0.11119877 0.11560168
-0.25659513 0.042465396 0.037075628 -0.02617371 0.07650412 -0.09322483 -0.14050911 0.10271335
0.2309312 -0.017232634 -0.067386635 0.1140787
